CartPole/results/policyNet.pth (torch_old, 1362 bytes, 4 tensors)

fc1.weight f4 [20, 4]
000000 a8 61 7d ba 29 14 bf be 4b d7 8c bf c7 83 4a bf
       -0.0009665736 -0.37320068 -1.1003202 -0.79107326
000010 ba 00 a2 3e 0a b6 e3 3e dd fd 2d 3f 56 89 1b 3f
       0.3164118 0.44474822 0.6796549 0.60756433
000020 6b f8 92 bd c5 2b 77 3e f5 69 77 3f bb f0 81 3e
       -0.07176288 0.2413779 0.9664605 0.25378975
000030 e9 8f bc 3e 62 1a d0 be a5 f2 09 3f 67 78 19 3f
       0.36828545 -0.40645128 0.5388587 0.59949344
000040 a1 c4 42 3e b8 1f 71 be 57 c9 3f bf 12 e5 25 bf
       0.1902032 -0.23547256 -0.74916595 -0.6480266
000050 da 46 11 be b0 33 c7 3e d6 b9 64 bf 5d ea ec be
       -0.14187184 0.38906622 -0.89346063 -0.46272555
000060 35 7d b3 be 56 1d 9a be fa e8 73 bf b0 8a ec be
       -0.35056463 -0.30100507 -0.9527737 -0.4619956
000070 6d 0d 2a be f8 af 7f be e2 a2 72 3f 2f 4e 5e 3f
       -0.16606684 -0.2496947 0.9477979 0.8683805
000080 ee e5 d1 3b b2 ae 99 be 22 38 7f 3f 69 a6 29 3f
       0.0064055836 -0.30016094 0.99695027 0.66269547
000090 02 ba 57 3e 62 62 48 3e 48 ad 1d 3e c1 f8 14 3e
       0.2106705 0.1956878 0.15398133 0.14548017
0000a0 d0 d9 82 3e 04 a9 d6 3d 92 5a 9f 3f dd c4 5f 3f
       0.25556803 0.10481456 1.2449515 0.87409765
0000b0 dd 60 b8 be 17 19 8e be 63 b9 40 bf 20 f6 17 bf
       -0.360114 -0.27753517 -0.7528288 -0.5935993
0000c0 f3 56 31 be e1 36 1d 3e 64 8c a3 3f 56 3d 4f 3f
       -0.17318325 0.15352966 1.2777219 0.80952966
0000d0 6b 67 7a 3e 90 43 a6 3e 97 5d b2 bf 69 2d 34 bd
       0.24453513 0.3247342 -1.3934811 -0.04398862
0000e0 64 b9 86 3e c9 8a 64 be f4 d5 3c bf 95 04 56 bf
       0.26313317 -0.22318567 -0.73763967 -0.8360074
0000f0 cb 22 c7 3e a4 4d 33 3e 9f ef 20 3f 9a 81 5c 3f
       0.38893732 0.17510086 0.6286563 0.86135256
000100 2b 92 fa be d4 d8 4b be 47 c9 0c bf 15 c6 96 be
       -0.48939642 -0.19906932 -0.54994625 -0.29448
000110 2d 2b b5 be d0 36 46 3d 17 e8 3b 3f 43 00 d9 3e
       -0.35384503 0.048392117 0.73401016 0.42383012
000120 35 c9 1e bf 96 b7 c8 be 9b ff 4f bf 67 53 1e bf
       -0.6202577 -0.39202565 -0.812494 -0.6184601
000130 87 90 9e 3d 3a 17 ab 3e fb cb 6c 3f ab 30 3d 3f
       0.0774241 0.33416158 0.9249875 0.73902386

fc1.bias f4 [20]
000000 a7 c3 b7 3e b7 cb a2 be b5 96 2c 3e af 4f 43 3d
       0.35891458 -0.31796047 0.16854365 0.047683414
000010 92 c3 99 3e 1f 8f 8f 3d 51 5b 5f 3d 3a b3 43 3e
       0.3003202 0.0700972 0.054530445 0.19111338
000020 71 36 96 bc 6e 43 11 3e 97 4b e9 3e 2c 64 91 3e
       -0.018336507 0.14185879 0.45565483 0.28396738
000030 98 e5 f8 3e 4b dc 56 3e 4c 46 dd 3e d3 48 72 be
       0.48612666 0.20982473 0.43217695 -0.23660593
000040 aa 6a 0b be 28 45 97 3e 62 ac fb 3e c6 2f 93 3e
       -0.13614908 0.2954495 0.49154955 0.28747386

fc2.weight f4 [2, 20]
000000 c7 48 0d 3f 85 94 92 be 36 4b 89 be 46 fb b8 3c
       0.55189174 -0.28628936 -0.26815194 0.022580754
000010 df d8 13 3f b9 cb 92 3e fd 35 f7 3e 06 71 3f be
       0.57752794 0.28671053 0.48283377 -0.18695459
000020 2b e6 c7 be 53 aa 43 3d f8 58 01 bf ea 99 4c 3e
       -0.39042792 0.047769856 -0.5052638 0.19980589
000030 41 d0 6c be 57 5e 65 3e dd 78 e5 3e 82 c3 6d bd
       -0.23126318 0.22399269 0.44818774 -0.05804778
000040 c7 7d dd 3d da 6a ad be b7 e2 b4 3e a2 83 b7 be
       0.10815006 -0.33870584 0.3532922 -0.35842615
000050 42 40 f8 be 7c 01 e6 bc a5 a7 9e 3e 2f d0 a1 3e
       -0.48486525 -0.02807688 0.30987278 0.31604144
000060 7b dd f7 be 79 17 df be 9e 2d b4 be 64 96 85 3e
       -0.48411164 -0.43572596 -0.35191053 0.260913
000070 ac 1f ba bb 36 3c 1c 3d f2 97 cd 3e da 39 e4 be
       -0.005680045 0.03814336 0.40154988 -0.44575387
000080 8e 36 0e 3f 24 7b 41 3c eb 3c 98 be 1e 0f a0 3e
       0.55551994 0.011809144 -0.29733977 0.31261533
000090 e7 a8 1c be 86 56 ab 3e 1a 52 9f bd fe 14 17 3f
       -0.15298806 0.3346445 -0.077793315 0.59016407

fc2.bias f4 [2]
000000 b4 e2 d2 3d 2a 08 33 be
       0.102971464 -0.17483583
