CartPole/results/policyNet.pth (torch_old, 1362 bytes, 4 tensors)

fc1.weight f4 [20, 4]
000000 ac 83 b6 bd 4e 08 5f 3e 08 e0 c7 3e df f1 dd 3e
       -0.08911833 0.21780512 0.3903811 0.43348595
000010 33 e2 f2 3c db cd a6 3c 16 ca 09 3f 62 72 ae 3e
       0.029648876 0.020361831 0.53823984 0.34071642
000020 9d 98 df 3e fe 49 83 be 4a e4 55 3f 8b 36 1c 3f
       0.43671122 -0.2564239 0.83551466 0.61020726
000030 71 a6 4f 3e 52 21 1d be d2 53 7e 3f 61 a0 4d 3f
       0.20278336 -0.15344742 0.9934665 0.80322844
000040 aa 49 cb bd eb 7b 9e be 7e 79 8a 3e 83 e0 46 3f
       -0.0992616 -0.30953917 0.27045816 0.7768633
000050 88 e3 81 bc b8 04 3f 3e 8f a9 78 be fe fb 2b bf
       -0.015855566 0.18654144 -0.24283431 -0.67181385
000060 da f8 f5 3e 61 03 90 bd 00 aa ba 3e 10 f3 2c 3f
       0.4804142 -0.070318945 0.36457825 0.67558384
000070 4b 5b 2f 3e 98 38 b9 bd 4a ca fd be 37 c6 b6 be
       0.17124669 -0.090439975 -0.49568397 -0.356981
000080 f8 1a c9 3e 9c 43 ed 3d 1d 72 00 3f c8 d4 9e 3e
       0.39278388 0.11585161 0.50174123 0.31021714
000090 ad c6 f1 bd c7 1f a3 3e cd ea 2c 3f 69 69 29 3f
       -0.118054725 0.31860182 0.6754578 0.6617647
0000a0 76 aa 02 3e 0a ee a2 be 3d 15 86 bf a7 7d 2c bf
       0.12760338 -0.31822234 -1.0475231 -0.6737923
0000b0 c3 4e a5 3d fd 68 86 be ab 4f 0e bf 38 a1 ea be
       0.08071663 -0.26251975 -0.55590314 -0.45826125
0000c0 70 a1 16 be 7d ce fb 3e 96 57 83 3f 73 3d 3e 3f
       -0.14710021 0.49180976 1.0261104 0.74312514
0000d0 02 1a 8e 3e 3f 52 f6 3d 6a 1e 94 bf f9 7f 3e bf
       0.27754217 0.12027406 -1.1571782 -0.7441402
0000e0 5c e5 86 3e 3d b2 d0 bd c4 cf 50 3e 9b 7f d8 bd
       0.26346862 -0.10190246 0.20391756 -0.10571214
0000f0 d8 20 2a be a7 be 8f be c2 5b e7 3e 2a d0 e2 3e
       -0.16614091 -0.28075144 0.45187193 0.44299442
000100 09 e7 7e be ad 97 92 be 2d 68 80 bf af 01 3e bf
       -0.2489282 -0.28631344 -1.0031792 -0.7422132
000110 0d 73 8f 3e ba 1d d2 be c0 bb 2e bf 8b a4 26 bf
       0.28017464 -0.41038305 -0.68255234 -0.6509482
000120 91 2f d1 3e e3 b6 78 be 52 9a 81 3f 51 e4 34 3f
       0.40856603 -0.24288516 1.012522 0.70660883
000130 67 05 12 3e b4 40 c5 be 97 79 91 bf 24 60 35 be
       0.14259873 -0.38525927 -1.1365231 -0.17712456

fc1.bias f4 [20]
000000 9b a6 01 3e 20 42 7a 3e 42 34 08 bc 87 c0 3e bc
       0.12661211 0.24439287 -0.0083132405 -0.011642582
000010 22 ea eb 3e ae 80 e8 bd 72 52 c5 3e 84 2d ca 3e
       0.46077067 -0.11352669 0.38539463 0.3948785
000020 62 3f 59 3e 13 0e c9 3e 01 de e7 3e 1c 82 43 3e
       0.21215585 0.3926855 0.45286563 0.19092602
000030 ea 56 ec 3e ed 94 bc 3e 90 e9 0a bf c8 4d ef 3c
       0.4616006 0.3683237 -0.5426264 0.029211894
000040 30 ec a2 3e 24 0d 85 3e e8 99 5c 3e 7d a4 d6 3e
       0.31820822 0.25986588 0.21543086 0.4192237

fc2.weight f4 [2, 20]
000000 e1 05 65 be a2 71 a9 3d 9e d4 59 be ff ca 50 be
       -0.22365524 0.08273627 -0.21272513 -0.20389937
000010 4e 6f 79 3c 49 b2 a7 3d 02 79 d5 bd 24 7e 07 be
       0.015224291 0.08188302 -0.10423471 -0.13231713
000020 0e 3b 78 bd 6f 1c ad be 44 c1 da 3e 31 c3 c5 3e
       -0.060603194 -0.33810756 0.42725575 0.38625482
000030 e6 f1 cd be d9 3f 9e 3e 4a 77 13 be 66 b1 93 be
       -0.40223616 0.30908087 -0.14400974 -0.28846282
000040 56 0a 1f 3f 40 10 8b 3e a7 8b 73 be e0 59 a7 3e
       0.62125146 0.27160835 -0.23783742 0.32685757
000050 57 7c 49 3e 1b 25 b4 3e 18 a5 bd 3e b2 49 f9 3e
       0.19676338 0.3518456 0.3704002 0.48689038
000060 4f 4e 58 3e 23 74 23 be 85 5c 2f 3e ac 0e 7c be
       0.21123622 -0.15962271 0.17125137 -0.24614972
000070 33 8c 53 3e fe c1 bc 3d 6e 78 f5 be 12 c9 0e bf
       0.2065895 0.092166886 -0.47943443 -0.5577556
000080 5a 54 d2 3e c5 85 65 be be 41 1e be 55 ec 4a 3d
       0.4107998 -0.2241431 -0.15454766 0.04954179
000090 e4 40 ab be 1b 5f 04 bf 39 78 81 3e d5 b5 a0 be
       -0.33447945 -0.5170762 0.25287035 -0.31388727

fc2.bias f4 [2]
000000 c3 42 07 be c7 57 90 bd
       -0.13209061 -0.07047992
